.dart_tool/chrome-device/Default/optimization_guide_prediction_model_downloads/90e37ecd-1d08-4c6b-ac2a-a12174bc783c/model.tflite (tflite, 409956 bytes, 166 tensors)

context_transformer_0/bottleneck_input/norm/add f4 [32]
000000 1a d1 20 bd 4c e5 ad bc c2 c0 93 3c d8 44 be 3c
       -0.039261915 -0.021227501 0.01803625 0.023226187
000010 71 f6 69 3d 7b b5 0b be 09 d2 57 bb 2e 9e da bd
       0.05711979 -0.13643448 -0.0032931587 -0.10674702
000020 20 fd 66 3c f0 08 51 3d a0 5b 83 3c 7a dd 6f 3d
       0.014098436 0.051033914 0.016034901 0.058560826
000030 58 5c 0f be 41 b7 63 3c 94 09 b3 3a b9 8b 52 3d
       -0.1400007 0.013898672 0.0013659471 0.05140278
000040 00 e9 b3 bd f4 66 09 bc 34 4b 3d 3c 2d a1 df 3c
       -0.087846756 -0.008386362 0.011553574 0.027298534
000050 e8 02 eb bb 3c c5 59 3c d0 ed b4 3c 38 aa e1 bd
       -0.0071719773 0.013291653 0.022086054 -0.11018795
000060 5e e5 e4 bc 42 14 22 bd ae 38 40 3d 06 2e 95 bd
       -0.027941402 -0.0395701 0.046929054 -0.07284169
000070 bd 9d ad 3c 1a ea be 3c c6 bf a1 3d 6a 48 b8 3c
       0.02119338 0.023304988 0.07897906 0.022495467

context_transformer_1/bottleneck_input/norm/add f4 [32]
000000 2c 47 3d 3e 49 64 c0 bd 54 b3 69 3d 7c 33 a2 3d
       0.18484181 -0.09394128 0.057055786 0.07919976
000010 c4 ef 9d bc 36 f7 f7 3d 18 02 c9 bd 78 83 15 bd
       -0.019279368 0.121076986 -0.098148525 -0.03650233
000020 ec cb 1f be 22 23 c6 3d 1e 05 89 3d 10 6f 63 bc
       -0.15605134 0.0967467 0.06690429 -0.01388146
000030 46 8c 0b be b5 b5 f8 3d ff 3e 43 3d 6c b1 e2 3d
       -0.13627729 0.12144033 0.0476675 0.11068997
000040 a2 3d 17 3a c8 8a b5 3d 22 36 35 bd 45 f7 2d bd
       0.0005769377 0.08864361 -0.04424108 -0.042472143
000050 1d 62 f1 3d bf e7 0a 3e 87 ff ea bd 87 92 f5 bd
       0.11786292 0.13564967 -0.11474519 -0.119908385
000060 a6 8a c3 bd a4 82 3a bc 48 53 91 be f8 11 1e bd
       -0.095479295 -0.011383686 -0.2838385 -0.038591355
000070 a4 38 0f bd 35 b3 c0 3c 15 7d 12 be c2 83 37 3d
       -0.034966126 0.023522953 -0.14305528 0.04480339

mention_transformer_0/bottleneck_input/norm/add f4 [32]
000000 a0 01 36 bb e4 54 19 bd 31 b4 11 3e a1 f9 02 bd
       -0.0027771965 -0.037434474 0.14228894 -0.031976346
000010 9e 3c 35 bd 2a 61 b3 3d 86 13 6e 3e 46 51 7f bc
       -0.044247262 0.08758767 0.23249635 -0.015583342
000020 09 6e 8a bc 06 67 31 bd 58 3c e2 bd b0 e5 45 3e
       -0.016898172 -0.04331114 -0.11046666 0.193259
000030 e8 53 65 bc 60 61 80 3c a1 2d c6 bd 98 23 36 bd
       -0.013997056 0.015671432 -0.09676672 -0.04446754
000040 cc c0 c6 bc d0 3b 28 bd f5 ae 45 bd 04 5a 95 bd
       -0.024261855 -0.041072667 -0.048262555 -0.0729256
000050 3c 32 29 bd 87 c5 93 3c 5c 69 09 bc a6 2c 1a bd
       -0.041307673 0.018038524 -0.008386936 -0.037640236
000060 5a c3 14 bd ae c0 1e bd 52 db ae bd 6c 51 bd 3d
       -0.036319114 -0.038757972 -0.08537926 0.092440456
000070 60 22 68 3d 78 fe 87 bd 28 38 db 3d 18 e8 58 be
       0.056673408 -0.06640333 0.1070407 -0.21182287

mention_transformer_1/bottleneck_input/norm/add f4 [32]
000000 28 70 b6 3d c5 09 a9 3e 22 b3 19 3e 4d d2 1a 3d
       0.08908111 0.33015266 0.1500974 0.037798215
000010 37 b6 18 be f4 2c 67 3c 42 05 b0 3e 60 3b 53 be
       -0.1491326 0.014109839 0.3437901 -0.20628119
000020 ab 4b 77 be 1b f3 06 3f b3 d3 09 3f 19 a6 d4 3e
       -0.24149959 0.527147 0.5383865 0.41532972
000030 38 ca 7f 3e 02 55 81 be 76 23 53 be ff 7d c9 bc
       0.24979484 -0.25260168 -0.20618996 -0.024596212
000040 f1 b1 54 be f7 30 d9 bd 6c 76 d6 3d 14 73 27 3d
       -0.20771004 -0.106050424 0.10471806 0.04088123
000050 ec d7 d9 3d 6f 32 ef 3d aa 47 a3 3d 00 cb 58 3e
       0.10636887 0.11679541 0.07972653 0.21171188
000060 9e a6 c4 bc 60 25 e9 3d 00 02 9a be 80 97 3c be
       -0.02400523 0.11384082 -0.3007965 -0.18417168
000070 12 71 af 3d 41 1b 80 bd 33 4c 79 be f1 b0 6a be
       0.08566488 -0.06255198 -0.24345474 -0.2291906

context_transformer_0/attention/value/add;context_transformer_0/attention/value/einsum/Einsum;context_transformer_0/attention/value/add/ReadVariableOp/resource f4 [32]
000000 1a 9b 42 3c f4 13 35 be f1 72 0b bd f0 f8 a5 bd
       0.011877799 -0.17683393 -0.034045164 -0.08104122
000010 2c bf 49 3d e8 8b dd 3c 63 e4 8b 3d 63 d2 00 bd
       0.04925458 0.027044252 0.06830671 -0.03145064
000020 bc e1 e7 3c b1 3f 47 3d 90 02 c2 bc 30 01 62 3d
       0.02830588 0.048644725 -0.023682863 0.055176914
000030 b6 bb 0f 3d 90 3d 58 3c c6 58 de 3c 96 e3 c8 3c
       0.035091124 0.013198271 0.02714194 0.024522584
000040 15 5c dc bc a8 2c ca 3c 0b 8a 46 bd 56 a5 be bd
       -0.026899377 0.024679497 -0.04847149 -0.09308879
000050 d6 a4 ce 3a f6 9c 9c bd 00 f0 1b 3c 30 18 54 bc
       0.0015765678 -0.076471254 0.00951767 -0.01294522
000060 c4 ac 2f 3c 90 8d b3 bd 34 72 4f 3d e9 80 c6 3c
       0.010722343 -0.08767235 0.050646022 0.024231391
000070 c8 98 1a bd 2e 21 26 bd 98 6f cd bd 6a 81 42 bc
       -0.03774336 -0.040558986 -0.100310504 -0.011871675

context_transformer_0/bottleneck_input/norm/mul f4 [32, 32]
000000 c3 d0 bf 3c 6d 99 aa bc 2a 09 0e bf f0 a5 9e 3a
       0.023414975 -0.020825112 -0.55482733 0.0012103897
000010 9f 4e e8 3d d5 fc 62 3e 4b 20 8c bc c7 12 da 3e
       0.11343121 0.2216676 -0.017105242 0.4259245
000020 0e cf cc bc 13 15 06 3e d2 b2 29 3e fd ef ee bd
       -0.025001075 0.13093977 0.16572121 -0.11666868
000030 89 59 22 ba 4b a4 07 3f 32 ba a1 3e 64 75 7b 3d
       -0.00061931513 0.52985066 0.31587368 0.06139125
000040 b7 91 0e 3e 6c 9c a6 be 7a 07 e1 bd 81 97 c3 3d
       0.13922773 -0.32541215 -0.10987754 0.095503815
000050 29 4b 17 bd 6a b2 b7 bc 32 5b 69 be 4c 24 ce 3d
       -0.036936913 -0.022423942 -0.22788695 0.10065517
000060 38 c5 6c 3e 27 4c 90 3d 68 ea 26 bb cd 29 0b be
       0.23122108 0.07045775 -0.0025469307 -0.13590164
000070 5a 67 3d 3e 83 e0 d3 3d 36 77 83 3e b5 5b cd be
       0.18496457 0.103455566 0.25676888 -0.4010903
000080 11 65 b7 3e f5 2f 18 bc 48 a8 8b bd 83 00 29 be
       0.35819295 -0.009288778 -0.068192065 -0.16504101
000090 89 3b ff bd bb 81 17 bf 37 0a 86 be 14 34 b6 3e
       -0.12462527 -0.5918233 -0.26179668 0.35586607
0000a0 4e c2 aa 3e 0d 2c c1 3d cd 58 d7 bd e0 92 78 bd
       0.33351368 0.0943223 -0.10514984 -0.060686946
0000b0 01 65 bf 3b ab be 52 3e 41 ab 69 3e 9b 22 8e be
       0.005840898 0.20580547 0.22819234 -0.27760777
0000c0 ac 08 10 3f 32 2a 2d 3e 05 6e a7 3d 2d f8 ec bc
       0.5626323 0.16910627 0.081752814 -0.028926933
0000d0 ad 9e 4c 3d d9 77 9e bd 63 ee 6d 3d fe 43 c9 3e
       0.049956013 -0.07737703 0.05808867 0.39309686
0000e0 57 22 81 bd 3f de 0e be de f8 f4 bc df 8e 81 3c
       -0.06305378 -0.13951968 -0.029903825 0.015815197
0000f0 ab cc 57 be 1b 7b 13 3e 78 19 03 3f ff 48 87 be
       -0.21074168 0.1440243 0.5121074 -0.2642288
000100 61 f5 4f 3e 4c 47 4c be ef f8 04 3f 97 c3 4c 3d
       0.20308448 -0.19949073 0.5194234 0.049991217
000110 9b c6 d3 bc 80 98 ab 3e f2 5a ef 3d 82 60 97 3e
       -0.025851538 0.33514786 0.11687268 0.29565817
000120 25 35 3c be 9d b4 e6 be 46 ca 07 bd 53 7c cb 3d
       -0.18379648 -0.45059672 -0.033151887 0.09935822
000130 ad 0c 21 be 5d bf 0d be a0 71 1f 3e fd 87 97 3d
       -0.15727492 -0.1384253 0.15570688 0.073989846
000140 e7 f3 d5 be 98 3d 6c be 83 ff 02 3c 19 94 b8 be
       -0.41787645 -0.23070371 0.007995489 -0.3605049
000150 62 18 43 3e af f0 ef 3d 5e 9f 9e 3d 09 8e 83 bd
       0.1905227 0.117158286 0.07745241 -0.064235754
000160 f1 20 4a bd b3 9f d5 be b9 19 c4 be 69 af e6 3e
       -0.04934782 -0.41723403 -0.38300875 0.45055702
000170 d4 36 77 3e 57 37 b3 3e 2e 19 42 bf b7 f1 bc 3c
       0.24142009 0.35003158 -0.7581967 0.023064477
000180 66 3f f8 3e 7a 04 79 3e d5 0b d9 3e e9 2b 15 3e
       0.4848587 0.24318114 0.4239184 0.14567532
000190 93 0b c2 bd 3c 3a 67 be 32 74 31 bf 4d 9f aa 3d
       -0.09474864 -0.22580808 -0.69317925 0.083311655
0001a0 54 90 11 3e 9c 86 34 be f4 59 36 be a9 83 71 3e
       0.14215213 -0.17629474 -0.17807752 0.2358538
0001b0 1b 6b bf 3e 15 e4 61 bd 84 c0 1a 3e 3a 09 18 bf
       0.37386402 -0.055149157 0.15112501 -0.5938908
0001c0 a7 6e 33 3d 99 52 90 3d cf 55 84 bc bc 22 8a be
       0.0438067 0.07047004 -0.016154198 -0.26979625
0001d0 b6 2a 65 be d3 a6 66 3e 16 19 60 3e 25 c5 e4 bd
       -0.22379574 0.22524576 0.2188457 -0.11170415
0001e0 09 d5 55 be a0 06 70 be e0 c1 93 bd a8 c0 3b bc
       -0.20882048 -0.23440027 -0.07214713 -0.011459507
0001f0 91 ec 82 3c dc 75 07 3f d6 e7 28 3e cf fc 57 be
       0.015981944 0.52914214 0.16494688 -0.21092533
000200 91 82 6d bc 90 64 f4 bd be 5f 3f 3c dc f0 33 3c
       -0.0144964615 -0.11933243 0.011680542 0.010982718
000210 60 b7 d5 bc 51 6a 72 be 1b 9a 04 bd 51 f1 7f be
       -0.026088417 -0.23673369 -0.03237353 -0.24994399
000220 69 c5 82 bd a7 47 e9 be 34 5b 20 bf 8a f4 60 3e
       -0.06385309 -0.4556248 -0.62639165 0.21968284
000230 84 5b 59 be 78 b8 bc 3e 44 64 15 bf 09 58 b6 3e
       -0.21226317 0.36859488 -0.5835612 0.3561404
000240 b4 77 76 3e 15 14 14 be 2e 31 a5 bd eb 4b 1c 3d
       0.240691 -0.14460786 -0.08066021 0.03815834
000250 90 a6 8f be 63 96 a7 3d 49 77 23 3e e0 74 0c 3e
       -0.28056765 0.08182981 0.15963472 0.1371646
000260 14 94 87 bd 17 63 f6 bd ac c8 67 bc d5 a8 94 3c
       -0.066200405 -0.12030619 -0.014146965 0.018146912
000270 2e d3 04 be 92 55 96 bc dc fe 9d 3d 39 55 81 bd
       -0.12971184 -0.01835135 0.07714626 -0.06315083
000280 72 ef 30 be 5a 9d 6d bc 57 8e ca 3e 8b be ad 3d
       -0.17278841 -0.014502848 0.39561722 0.08483609
000290 a9 07 65 be 4d 46 8a 3e 15 1b de 3e 11 e4 11 be
       -0.22366203 0.2700676 0.43380037 -0.14247157
0002a0 ef 2d 21 3e 79 b6 4c 3e 27 b2 15 bf f9 40 1a be
       0.15740179 0.19991483 -0.58474964 -0.15063848
0002b0 7a 4b d5 3d 28 b5 00 bf ec d3 83 3d 09 a4 82 3b
       0.10414787 -0.5027642 0.06436905 0.0039868397
0002c0 f6 ab a4 bc 1a 1f ef be ab ff 52 bd 79 3b f3 bc
       -0.020101529 -0.46703416 -0.051513355 -0.029691445
0002d0 ed 28 53 3d e6 33 0d 3e 90 a0 c6 3e 43 a0 14 be
       0.0515527 0.13789329 0.38794374 -0.1451426
0002e0 e6 55 6e 3e 0f bd da 3e 55 a0 a7 3e 41 a8 da be
       0.23274955 0.42722365 0.3273951 -0.42706493
0002f0 2b 7a 44 3f bf 16 69 be d0 c2 3f 3e 2c b4 95 3e
       0.76748914 -0.22762583 0.18726659 0.29239023
000300 f6 82 be bd 5c 93 de 3d 38 5a e4 bc 5b e9 78 3e
       -0.093023226 0.1086795 -0.02787505 0.24307768
000310 3b a9 10 bc 7c 21 28 3d 4d da ab be d0 51 b7 3e
       -0.00882941 0.04104756 -0.33564988 0.35804605
000320 aa ad 2d be d9 ce 25 be e9 b3 f5 3e 08 47 e4 bb
       -0.16960779 -0.16192187 0.47988823 -0.0069664754
000330 e0 20 30 bd 62 b6 71 bd 80 08 9d 3e 9a 57 d5 bd
       -0.043000102 -0.059011824 0.30670547 -0.10417099
000340 0a 2d 26 bd bc 9e b3 3d 05 ca 66 be 89 ba 1a be
       -0.040570296 0.087705106 -0.22538002 -0.1511022
000350 33 ce 05 3e 6d a6 80 3e 38 c6 04 bd 29 35 2b be
       0.1306694 0.25126973 -0.0324156 -0.16719498
000360 df 61 25 3d cc 39 f3 bd f3 9a 05 bf 68 af 9e 3e
       0.04037654 -0.11876258 -0.5218956 0.309932
000370 fe a8 96 bd 3c f4 b4 3e 01 4b 6e 3d 74 88 73 be
       -0.073564515 0.35342586 0.058176998 -0.23782521
000380 b1 9d 9d be 8b 12 ae be 49 6a 8f be 0b 6e 87 bc
       -0.30784371 -0.33998522 -0.28010777 -0.016531965
000390 40 51 9a bc 96 5c e3 3c 3a 4b da 3e eb dd ba bb
       -0.018837571 0.02775411 0.42635518 -0.005702724
0003a0 90 21 36 3e 26 01 a0 be 8a 13 04 bf 77 7a d0 3d
       0.1778624 -0.31250876 -0.51592314 0.10179608
0003b0 42 06 ba 3c 12 88 00 3d 84 62 08 3f 29 6a c2 bd
       0.022708062 0.031379767 0.5327532 -0.09492905
0003c0 f6 7a 8f 3d 47 d4 42 3e 02 2c 87 be fb 7d 3c 3e
       0.07005875 0.1902629 -0.26400763 0.18407433
0003d0 a0 36 98 be e9 a5 54 3e 9f 97 9d bd 81 e5 cf bd
       -0.29729176 0.20766415 -0.07694935 -0.10151196
0003e0 14 65 83 3e c4 ed aa be e9 82 27 3f 74 21 12 be
       0.25663054 -0.33384526 0.6543413 -0.14270574
0003f0 8f ef 92 3e 23 86 7d be 97 66 ee be e8 21 24 3e
       0.28698394 -0.247582 -0.46562645 0.16028559

context_transformer_0/kq_shared_bottleneck/norm/mul;context_transformer_0/kq_shared_bottleneck/norm/add;context_transformer_0/attention/key/einsum/Einsum;context_transformer_0/attention/key/add;context_transformer_0/attention/value/einsum/Einsum;context_transformer_0/attention/key/add/ReadVariableOp/resource f4 [32]
000000 b3 d0 bc 3e ce 28 a2 be b2 d0 a3 bd ca ab 3d be
       0.36877975 -0.31671757 -0.0799879 -0.18522564
000010 82 00 03 be d7 cf 4e be 0e 99 39 bf ba e2 f3 3e
       -0.12793162 -0.20196472 -0.7249917 0.47633916
000020 7d 8b 11 3e af 16 e4 3c 96 59 7e 3d 35 55 50 be
       0.14213367 0.027842848 0.062097155 -0.20345004
000030 cf 50 78 be 1e 90 ad bd 16 ea e1 3d 50 1b b7 be
       -0.24249576 -0.08474754 0.110309765 -0.35763025
000040 2d 92 85 be 79 ce db 3e 71 6e b8 3e 1e ee 74 3d
       -0.26088086 0.42930964 0.3602176 0.0597974
000050 9e bc b6 be 31 7d 79 3e 8e 18 0d bf 71 17 85 be
       -0.35690778 0.24364163 -0.5511559 -0.25994447
000060 16 d7 ca be 21 30 01 3e 22 24 62 be 95 d7 0c be
       -0.39617223 0.12616016 -0.22084096 -0.13754113
000070 38 9b cc 3e fd cf c7 bd 2d a3 dc 3e 91 61 c1 3e
       0.39962173 -0.097564675 0.43093243 0.3776975

context_transformer_0/kq_shared_bottleneck/norm/mul;context_transformer_0/kq_shared_bottleneck/norm/add;context_transformer_0/attention/key/einsum/Einsum;context_transformer_0/attention/key/add;context_transformer_0/attention/value/einsum/Einsum;context_transformer_0/attention/key/add/ReadVariableOp/resource1 f4 [32, 32]
000000 9e b2 6b 3b f4 fb 5a be d2 79 34 3e 9c 7d b7 3e
       0.0035964618 -0.21385175 0.17624596 0.3583802
000010 51 ab a3 3e df 5c 4f 3d 67 4c 3b 3e b7 63 de bd
       0.31966642 0.05062568 0.18290864 -0.10858863
000020 75 f4 00 be 88 51 d4 3c 27 a4 13 bc 0a 1d cb 3e
       -0.12593253 0.025917783 -0.009011305 0.39670593
000030 6a d4 5d be f3 8f 57 be 72 3c b9 3e 26 88 73 3e
       -0.21663061 -0.21051006 0.3617893 0.23782405
000040 01 d3 0f bf 90 c4 20 bd cb f1 8c 3c cd ec 10 3b
       -0.5618134 -0.039249957 0.01720514 0.00221138
000050 96 fe 39 3f d6 20 aa 3e 2a dc a9 bd 27 31 65 be
       0.7265409 0.33228177 -0.08293946 -0.22382031
000060 27 30 13 bf 4a 17 99 bd 90 33 b8 be 8e f7 e1 bd
       -0.5749535 -0.07475145 -0.3597684 -0.110335454
000070 d1 f7 b4 be c7 7b 78 3e b2 22 f2 bd fc 99 ba 3e
       -0.3534532 0.24265967 -0.11823024 0.36445606
000080 57 85 58 be 5d 31 42 3e 04 e1 9d be 92 8d 81 be
       -0.21144615 0.18964143 -0.30835736 -0.25303322
000090 15 57 5b 3d e8 26 2d 3e b3 75 07 be 10 b2 c4 3d
       0.053549845 0.16909373 -0.13228492 0.09604275
0000a0 9e fc 4d be ba 8b 13 be 06 25 21 be 8e af 32 3d
       -0.20115897 -0.1440877 -0.1573678 0.043624453
0000b0 09 4b 49 3e c0 84 53 be 4a 9f 21 bd 02 c2 c9 bd
       0.1965753 -0.20656109 -0.03945855 -0.09851457
0000c0 25 db 7c 3e 38 cd 8a 3e a3 d0 e3 3d 09 d9 14 3e
       0.24692972 0.27109694 0.11123779 0.14535917
0000d0 5a 7b 0f be f8 f0 17 3d b9 c5 cc 3d 3f 18 a4 3d
       -0.14011899 0.03709504 0.0999865 0.08012437
0000e0 20 ea 5e 3e 2b 64 fc bd 54 ef de 3e f0 f6 6e 3e
       0.21768999 -0.12323793 0.43541968 0.23336387
0000f0 25 65 8d 3e 45 03 0c 3e 42 b5 ac 3e 41 fe f8 be
       0.2761623 0.13673122 0.3373204 -0.4863148
000100 96 81 97 bd 9a ef 45 bf f7 3d c4 3d 21 2f 74 be
       -0.073977634 -0.7731873 0.09582131 -0.23846103
000110 78 7b 29 bf 11 2b 37 3f 17 09 be be 40 16 d5 be
       -0.66204023 0.7155009 -0.3711631 -0.41618538
000120 12 0f db 3e 25 94 6a be 7c 68 60 3c 55 94 f2 3e
       0.42784935 -0.22908075 0.013696786 0.47378793
000130 1b 42 d3 3d 89 af 7f bd 84 22 23 3d aa b4 84 be
       0.10315343 -0.062423263 0.03982784 -0.25919086
000140 20 22 80 bd 17 f5 9e 3f d6 1e cd 3e ab 5c 6e be
       -0.06256509 1.2418545 0.40062588 -0.23277538
000150 54 95 e2 3c 5a 38 ce be f0 44 16 3d 56 69 2f bf
       0.027659096 -0.40277368 0.036686838 -0.68520105
000160 0a 79 1d bf 5c 7f 11 bc 4a 43 21 3d f4 c9 43 bd
       -0.61512816 -0.0088804625 0.039370812 -0.04780002
000170 f5 27 99 3d 86 c8 34 bf ed 0a 83 3d 49 06 a0 bc
       0.07478324 -0.70618474 0.06398568 -0.019534247
000180 9b f2 9b bd b8 a4 a3 be c4 9a b9 3e 06 b1 b0 3e
       -0.07614633 -0.31961608 0.3625089 0.34510058
000190 66 9c 9d be 09 71 38 3e ec 64 13 3f 8f 37 03 3f
       -0.30783385 0.1801187 0.5757587 0.5125665
0001a0 db 2e 84 3e 54 43 95 be 54 e1 5f 3e 60 f4 14 3f
       0.25816998 -0.2915293 0.218633 0.58185387
0001b0 48 0f a1 3d 64 89 1f 3e 90 82 3a be d8 ae 9c 3e
       0.07864243 0.15579754 -0.18213868 0.30602145
0001c0 5f 31 43 3d 8b fe e5 3e 2d bb 25 3e c0 e2 43 bd
       0.047654506 0.44920763 0.16184683 -0.047823668
0001d0 ae d7 30 be 11 ad 0c 3f c0 31 9f 3e fd 3a a3 bd
       -0.17269775 0.5495158 0.31092644 -0.079702355
0001e0 ad ef 1e bd 10 8c 8e 3e ee be 34 bd f2 22 a9 be
       -0.03880279 0.27841234 -0.044127397 -0.33034474
0001f0 4d 9e 98 be f5 84 29 3e df a7 0a be 4e 42 10 3f
       -0.29808274 0.16554625 -0.135406 0.5635117
000200 b3 1f 37 bf 66 1f 44 3e 09 ed 0f 3f c6 77 22 bd
       -0.71532744 0.19152603 0.5622106 -0.039665006
000210 ce c7 2b 3d 1b e5 4a 3d 5a 9c 33 bf 51 86 91 3d
       0.041938595 0.0495349 -0.7016045 0.07105697
000220 5b 19 9f 3c 9d 96 76 bd 34 b9 0e 3e 61 48 e0 3e
       0.01942127 -0.06020223 0.13937837 0.4380522
000230 fe dc 09 be 91 95 ac be 83 16 d1 be b7 ef 1d bf
       -0.13463208 -0.3370786 -0.40837488 -0.616939
000240 ad 50 14 bf 90 83 e6 3d 72 f0 ea bd 8a a8 10 3d
       -0.579356 0.11255562 -0.114716426 0.03531698
000250 32 1e 2a bf 96 64 ae 3e eb c5 d3 3d 5e b3 90 bd
       -0.66452324 0.34061116 0.10340484 -0.070654616
000260 d8 70 80 3f b3 51 18 3f a7 c7 68 bc c5 f5 d1 be
       1.0034437 0.59499663 -0.014207757 -0.4100782
000270 e9 99 a2 be 1b 7f b2 3d a3 4c 0f bf c6 1d a1 3e
       -0.3175805 0.0871565 -0.55976313 0.31468028
000280 92 7e b1 3e 59 7a 1a bd db 7e 20 be 97 8e 1e bf
       0.34666878 -0.037714336 -0.15673392 -0.61936325
000290 a9 49 85 3c 8a f8 39 bd 0e 15 12 3e 83 9b f9 3c
       0.016270475 -0.04540304 0.14265844 0.030469662
0002a0 80 52 1c be f9 f3 b0 3e 33 1e 68 bd a8 05 bb bc
       -0.15265846 0.34561136 -0.056669425 -0.022829846
0002b0 96 ea 81 bd f7 f4 0f be c5 d5 99 3d e6 36 9f 3e
       -0.06343572 -0.1405829 0.075114764 0.31096572
0002c0 1b 99 fc bd d4 db fd 3e f9 8e 68 be f9 6b f6 bd
       -0.1233389 0.49581778 -0.2271079 -0.12032313
0002d0 21 a6 34 3e 66 86 84 be 91 8e d2 bd a5 4e d2 bd
       0.17641498 -0.25883788 -0.10281099 -0.102689065
0002e0 65 12 9a 3e 72 63 46 be f7 48 0f 3e 1e 8a ab 3e
       0.3009216 -0.19373873 0.13992678 0.33503813
0002f0 0d 6a 40 3e b0 84 2a 3f 4f 6e 42 3d 79 c1 fb be
       0.18790455 0.66608715 0.04746848 -0.49171045
000300 fc fa cd be bc af 52 be 15 e8 50 be 3a 0e f4 3c
       -0.40230548 -0.2057485 -0.20401032 0.02979194
000310 53 b8 0b 3f b3 0e 99 3e 11 f6 95 be c4 9f bd 3e
       0.5457813 0.29894027 -0.29289296 0.37035954
000320 ee 2b ba be 69 7b 30 bf 7d c8 9f be 44 96 a7 3e
       -0.3636164 -0.6893831 -0.31207648 0.3273183
000330 bc 4f 00 3f b7 68 c7 be 34 3a d3 be 2b c7 25 3e
       0.50121665 -0.3894708 -0.41255343 0.16189258
000340 b5 08 e9 3e c4 4b af 3e 9f c1 b6 3c f1 96 01 3f
       0.45514455 0.34237492 0.022309123 0.50620943
000350 f9 b6 21 be de eb 09 3f f9 13 8d 3e fb 04 09 be
       -0.15792455 0.5387553 0.275543 -0.13380806
000360 63 dd 3c 3f 1e 78 74 3d 02 2c 27 3f cf ef 13 be
       0.7377531 0.059684865 0.65301526 -0.14446948
000370 b3 91 9c 3e 67 7c bb 3c af 73 06 3f 25 6a 8f bd
       0.3057991 0.022886468 0.5252027 -0.07002667
000380 c9 de f5 be e4 dd 96 3e 5d a9 9c bd c0 d0 20 3f
       -0.48021534 0.29466164 -0.07649491 0.6281853
000390 55 25 08 3f bf 50 cb bd 7e 7a 0c bf 8f 1d c8 be
       0.53181964 -0.099275105 -0.5487441 -0.3908505
0003a0 e7 bb 29 be 4e 47 45 be b4 49 ba bd 05 79 7a be
       -0.16575585 -0.19265482 -0.09096089 -0.24460228
0003b0 28 b6 1a bd b2 3b cf 3a 79 27 91 3d 7c 2e d5 be
       -0.037771374 0.0015810637 0.07087607 -0.41637027
0003c0 3d 94 73 3c d4 e5 99 bf ac cc 49 3e 73 c8 af 3e
       0.014866886 -1.2023263 0.19706982 0.34332618
0003d0 99 f0 a3 bc d5 ef d6 3e e7 48 13 be a0 20 1b 3e
       -0.020012187 0.41979852 -0.14383279 0.15149164
0003e0 af 81 f5 bd cf dd 3c 3e be e8 82 be 3b ca a3 be
       -0.11987626 0.18443988 -0.25568193 -0.31990227
0003f0 bd 0d cd bd 8e 3f 30 bf 99 8d 2d 3d 63 d3 ab 3e
       -0.10012386 -0.68846977 0.042371366 0.33559713

context_transformer_0/kq_shared_bottleneck/norm/mul;context_transformer_0/kq_shared_bottleneck/norm/add;context_transformer_0/attention/query/einsum/Einsum;context_transformer_0/attention/query/add;context_transformer_0/attention/value/einsum/Einsum;context_transformer_0/attention/query/add/ReadVariableOp/resource;context_transformer_0/attention/Mul;context_transformer_0/attention/Mul/y f4 [32]
000000 09 7d 5b 3d f4 d3 27 3d 34 81 19 be 09 ff aa 3c
       0.05358604 0.04097362 -0.14990693 0.020873563
000010 4d b5 e8 bd 03 cb 53 bd 30 33 92 3e cb da 01 3e
       -0.113627054 -0.05170728 0.28554678 0.12681119
000020 3a b0 64 3d 8c 44 8d bd 3a f3 69 3d 87 2f 0d be
       0.055832125 -0.0689784 0.057116725 -0.13787661
000030 4a 52 75 be f4 67 a2 3d 19 54 c2 bd 24 da 02 3e
       -0.23957172 0.07929984 -0.094886966 0.12778527
000040 94 f0 8d 3e 3d 63 86 be 22 d5 3b be ae e0 11 be
       0.2772261 -0.26247588 -0.18343022 -0.14245865
000050 a4 17 18 3e c6 e9 7a be fe 7e e8 3d c5 c1 22 3e
       0.14852768 -0.2450324 0.11352347 0.1589423
000060 03 cf 0d 3e 07 43 04 3e 4e 1c a0 3e 6f f5 11 be
       0.138485 0.12916194 0.31271595 -0.14253782
000070 ec c4 f2 3d a7 90 49 be 50 d0 d5 bd 47 64 83 bd
       0.11853966 -0.19684087 -0.10440123 -0.06415611

context_transformer_0/kq_shared_bottleneck/norm/mul;context_transformer_0/kq_shared_bottleneck/norm/add;context_transformer_0/attention/query/einsum/Einsum;context_transformer_0/attention/query/add;context_transformer_0/attention/value/einsum/Einsum;context_transformer_0/attention/query/add/ReadVariableOp/resource;context_transformer_0/attention/Mul;context_transformer_0/attention/Mul/y1 f4 [32, 32]
000000 8f ca 91 bd 32 7e 2e bc 7e de 4b 3e f2 df ba 3d
       -0.07118713 -0.0106502045 0.19909093 0.091247454
000010 f7 5c d8 3d 3d 47 3f bb c3 53 e0 3d c1 72 ee bc
       0.10564607 -0.0029186748 0.10953476 -0.029107453
000020 47 f2 f4 bd 15 fb 79 bc 90 70 d8 bb e4 37 1f 3e
       -0.11960273 -0.0152576165 -0.0066052154 0.15548664
000030 47 c4 37 bd f9 2d 84 bd d8 4d 5e 3e 68 18 05 3e
       -0.04486492 -0.06454081 0.21709383 0.12997591
000040 34 ee e8 bd e8 a3 c0 3d 05 52 4a 3d d4 32 82 bd
       -0.11373559 0.09406263 0.049394626 -0.06357351
000050 eb 84 96 3e e9 83 d0 3d 08 fb 8b 3c bc 18 03 be
       0.29398283 0.1018141 0.017087474 -0.12802404
000060 e0 40 24 be 0e 0f 0a bc 5d 4f 2b bd d5 83 de bd
       -0.16040373 -0.008426441 -0.041823734 -0.10864989
000070 4b 43 be bd ed 9b 94 3d 2c 63 cb bd 1e a3 ba 3d
       -0.09290179 0.07256303 -0.09931025 0.091131434
000080 18 5c 1c bd ff b6 9a bd db 61 4b be f9 33 0f bd
       -0.038173765 -0.07554435 -0.19861548 -0.034961674
000090 f3 9b ea 3d 51 3f 6e ba 13 1a 6d be 82 ce 01 bc
       0.11455526 -0.00090884144 -0.23154478 -0.00792277
0000a0 59 ba 41 bd d3 aa f3 bb 83 f5 67 bd db 2b 27 be
       -0.047296856 -0.0074361353 -0.056630623 -0.16325323
0000b0 44 69 39 3d 33 3c 00 3b 6c 76 8f bd df 8a f7 bd
       0.045266405 0.0019567132 -0.07005009 -0.120870344
0000c0 fc 54 d5 bc 52 f9 ed bd ea b6 2e bd 3f 43 cc 3d
       -0.0260415 -0.1161982 -0.04265491 0.09973764
0000d0 ca 41 53 bd 49 29 ab bd 1f 64 a7 bd df ea 07 3d
       -0.051576413 -0.08357484 -0.081733935 0.033182975
0000e0 84 b2 5e 3c f1 ac 4c bd 78 e1 f8 3c 10 d2 4a 3d
       0.013592366 -0.049969617 0.03038095 0.049516737
0000f0 d6 7d 44 3d 5b 34 c1 bd e3 26 01 3e ff 3f 53 bd
       0.04797157 -0.09433814 0.1261249 -0.051574703
000100 37 46 93 3d 80 67 ad be a9 53 f7 bc 68 49 96 3d
       0.07191127 -0.33868027 -0.03019126 0.0733822
000110 9c 85 21 3d 5c c2 e5 3d 9d 8e ce 3c ca 88 c8 3c
       0.03943406 0.11218712 0.025214488 0.024479289
000120 a5 d7 76 3c 80 d0 04 3d 33 81 eb bc f9 c8 4d 3e
       0.015066062 0.032425404 -0.02874813 0.20096196
000130 2b b9 13 bd cf 9b dc bd 21 90 c0 bc c5 60 ee 3c
       -0.03606526 -0.10771906 -0.023506226 0.029098878
000140 85 2c bd 3e 3c 63 dc 3d 0d cc 07 be 7f 25 21 3d
       0.36948028 0.10761115 -0.13261433 0.0393424
000150 f4 d6 f4 3d 40 a8 0a 3d 75 a5 33 3d 6d b0 d4 be
       0.119550616 0.033851862 0.043858964 -0.41540852
000160 5e c0 56 3e 24 96 e8 3c 36 0f 79 bc 46 45 4c 3d
       0.2097182 0.028391905 -0.0152013805 0.04987075
000170 51 90 3d 3d 3e af c6 be 5d f5 08 bd f6 32 90 bd
       0.04628021 -0.38805574 -0.03343712 -0.0704097
000180 c4 6a 59 bd da b4 03 be 33 61 23 3e 80 8d 43 3e
       -0.053080335 -0.12861958 0.15955047 0.19096947
000190 24 56 89 bd 3e e3 dd bd 78 0e 48 3c 1c f0 5c bc
       -0.06705883 -0.10834359 0.012210481 -0.013484981
0001a0 1e 1e a0 3d 2b 79 33 3d 3f 53 ad 3d 9a 05 14 3d
       0.078182444 0.043816727 0.084631436 0.036138155
0001b0 ea 05 e0 3b 37 75 2e 3e 01 44 ef bb 2f b3 2e 3d
       0.0068366425 0.17036901 -0.007301808 0.04265135
0001c0 66 6a 4b bd 1e 2d 58 bd dc ca ba 3d d6 62 8b bd
       -0.049662016 -0.052777402 0.091207236 -0.06805961
0001d0 21 42 7a bd b2 20 cc 3d 2e 5c 8c 3d 4b 7b 52 be
       -0.06109822 0.09967174 0.068535194 -0.20554845
0001e0 5c 0f e7 bd e6 d4 0d 3e 9c 3c 5f bb dc 48 71 be
       -0.112822264 0.13850746 -0.0034063226 -0.2356295
0001f0 b2 e3 35 bd 5a 4b 60 be 36 69 60 be c2 f5 49 3e
       -0.0444066 -0.21903744 -0.21915135 0.19722655
000200 f1 2d c5 3c bd da 00 3d ef 4e 67 3e 28 be 88 bd
       0.024069758 0.031458605 0.22588705 -0.066768944
000210 a7 fc 9d bd 0c 8b 1f bc 6e 92 8a bd 67 6f cd 3b
       -0.07714205 -0.009737741 -0.067662105 0.0062693837
000220 72 4a 81 bd 77 d9 38 3d 97 c8 82 bd d1 e8 48 3e
       -0.063130274 0.045129266 -0.06385916 0.19620062
000230 81 3c 83 3c 16 27 8a bd a3 b6 8f bd f1 33 53 be
       0.016020061 -0.06745736 -0.07017257 -0.20625283
000240 04 84 6d be 0e 04 21 3e c3 1b 79 be 20 c2 4c 3e
       -0.23194891 0.15724203 -0.24326997 0.19995928
000250 fb be 78 be b8 6e 97 3c 90 5a 12 3d cd 0a 4b be
       -0.24291603 0.018485412 0.0357309 -0.19828339
000260 d4 a8 74 3e 68 8c 26 3e 28 30 e9 3d dd cd 00 be
       0.23892528 0.16264498 0.11386138 -0.1257853
000270 99 84 d1 bd bc 1c 50 3d f8 28 8d be 0b ef db ba
       -0.10230369 0.050808653 -0.2757032 -0.0016779614
000280 85 c3 1c 3d 29 5e 7c bd da 57 ce bd fb 93 9c bd
       0.0382724 -0.061613236 -0.1007535 -0.076454125
000290 d4 76 b6 3d a0 c9 3d 3d db 19 b1 be cb 4b e3 3a
       0.089093834 0.046334863 -0.3459004 0.0017341314
0002a0 c7 3a a0 3b 89 c8 5a 3c 6c 11 d7 3c 17 b1 5a be
       0.0048898193 0.013353475 0.026253425 -0.21356617
0002b0 80 c0 10 3b 8d 90 80 bd 4e f2 87 bd ce 42 f2 3d
       0.0022087395 -0.06277571 -0.06638013 0.11829148
0002c0 dc d3 c0 bd 76 90 73 bd e7 a6 84 bb d2 77 69 be
       -0.09415409 -0.05946394 -0.0040482166 -0.22799614
0002d0 a8 b5 1b 3e a3 f0 1b be 98 3f 4b bd 8c a9 a5 3d
       0.15206015 -0.15228514 -0.049621195 0.08088979
0002e0 40 78 2e 3e 81 0a 3d bc 7e cb 4a bd bb 72 75 3d
       0.17038059 -0.011538149 -0.04951047 0.05992387
0002f0 e7 55 67 3c c2 b0 f9 3b 62 06 c0 3d cb df 2e bc
       0.014119602 0.007619948 0.093762174 -0.010673474
000300 83 b8 ce bd f1 e8 4b be 93 d4 26 be 00 b0 ff bd
       -0.100937866 -0.19913079 -0.16292028 -0.12484741
000310 67 d2 d0 3d 2a 4f 7c 3d 1d f5 b4 be 06 3b 09 be
       0.10196381 0.061598934 -0.35343257 -0.13401422
000320 c2 9a 9b 3c 97 6f d4 3c 6e 2e ed bc 06 3f bc bc
       0.018994693 0.025932116 -0.028952803 -0.02297927
000330 92 b4 f9 3c 4a 16 10 3e dd e7 a7 3c f8 fb 77 be
       0.03048161 0.14071003 0.020496303 -0.24217212
000340 7f 2e 02 be 31 42 b4 bd f5 fb b9 3d 69 36 4d 3e
       -0.1271305 -0.088016875 0.0908126 0.20040287
000350 d3 d3 79 be 2f ce 28 3d 8a 8f 46 be 13 34 28 be
       -0.24397211 0.041212257 -0.19390693 -0.16426115
000360 cd 76 26 be ed 89 d0 3b c3 de a7 bc 33 a3 90 bd
       -0.16256256 0.0063640983 -0.020491963 -0.07062378
000370 93 d0 7b 3d 66 6b f8 bd 00 bb 51 3d 51 17 bd 3b
       0.06147821 -0.121298596 0.051203728 0.005770602
000380 d4 fb 9a 3b 81 8c 42 3e ef 1e 91 3d 24 fb ab bc
       0.0047297273 0.1899891 0.07085978 -0.020993777
000390 4f 32 21 ba 38 08 14 bd 44 73 ca 3e cc 0c bd bc
       -0.0006149159 -0.03614065 0.39541066 -0.023077391
0003a0 93 6f e6 bd 1a f6 99 bd 61 9a bc bd 12 9e 8d 3e
       -0.1125175 -0.07517643 -0.09209133 0.2765966
0003b0 7a d5 cd 3c 44 ca de bb fe 11 07 3e f8 90 fa bd
       0.025126208 -0.0067990143 0.13190457 -0.12234682
0003c0 d9 df 09 bb bc 2f 09 3e 62 64 ee bc f3 49 c7 3e
       -0.0021037965 0.13397115 -0.0291006 0.38923606
0003d0 54 14 11 be 59 07 34 3e c7 2e 5f bb e5 32 27 3d
       -0.14167911 0.17580928 -0.003405498 0.04082002
0003e0 57 a6 63 be 2e d6 56 bd 05 0e 91 3d d3 96 b5 bc
       -0.22231422 -0.05245035 0.07082752 -0.022166645
0003f0 48 01 49 bd 5b 34 69 3e 07 12 b1 3b 5f 39 35 bd
       -0.049073488 0.22773878 0.0054037604 -0.044244166

context_transformer_0/ffn_layer_0/intermediate_dense/einsum/Einsum;context_transformer_0/ffn_layer_0/intermediate_dense/Relu;context_transformer_0/ffn_layer_0/intermediate_dense/add f4 [32]
000000 13 95 15 be 93 5d 76 be e3 6e a4 be 4d 22 09 be
       -0.14607649 -0.24059133 -0.3211585 -0.13391991
000010 26 7f e1 be 47 9d 93 be 36 8f 40 be 1d d2 4d be
       -0.4404232 -0.2883093 -0.1880463 -0.20099683
000020 07 7a 8f be e8 aa 86 bd 9f 77 25 be 6a ca 17 be
       -0.28022787 -0.065755665 -0.16158913 -0.14823309
000030 17 97 9c bd c7 a9 86 be 23 45 c1 be c2 12 57 be
       -0.076460056 -0.26301405 -0.3774806 -0.2100325
000040 4f 8e 54 be 18 c1 4d be fc ad af bd 72 0c 86 be
       -0.20757411 -0.2009319 -0.08578107 -0.2618137
000050 7a 24 61 be ba 0d 6d be 5f 44 9c be 05 ae 7b be
       -0.21986571 -0.23149768 -0.30520913 -0.24578102
000060 6a 0b d2 be 1f 1a 03 be 12 b9 73 be c8 34 33 be
       -0.41024333 -0.12802933 -0.23801067 -0.17500603
000070 c6 91 3e bd 73 66 8d be 1a 75 52 be a4 78 95 be
       -0.04652574 -0.27617225 -0.20552483 -0.29193604

context_transformer_0/attention/norm/mul;context_transformer_0/attention/norm/add;context_transformer_0/ffn_layer_0/intermediate_dense/einsum/Einsum;context_transformer_0/ffn_layer_0/intermediate_dense/Relu;context_transformer_0/ffn_layer_0/intermediate_dense/add f4 [32, 32]
000000 f4 1f 4b be 29 da f1 3d 90 f3 63 be a4 40 33 be
       -0.19836408 0.11809189 -0.2226088 -0.17505127
000010 0e 64 44 3e 84 23 57 be f9 33 85 be 18 62 3a 3e
       0.19178793 -0.21009642 -0.26016214 0.18201482
000020 1c 03 9f be dc ee 68 bd 9c 38 04 3f 7f a8 5d bd
       -0.3105706 -0.05686842 0.5164888 -0.05411577
000030 33 6d ed 3d 63 d9 ec bc 90 c4 17 3d 7a f5 42 3e
       0.11593094 -0.028912252 0.03705269 0.19038954
000040 ba 94 0b 3e cd 7f 97 be 02 d6 0f bd c3 39 57 3e
       0.13630953 -0.29589692 -0.035116203 0.21018128
000050 a3 ae d3 3d 05 e9 53 3d f3 77 00 bc 14 b6 0a be
       0.10336044 0.051735897 -0.007841098 -0.1354602
000060 b2 eb 6e 3d 04 34 8c 3e 65 be 18 3e 09 78 08 3e
       0.058330245 0.27383435 0.1491638 0.1332704
000070 e4 50 96 bd 2d d4 11 3e c2 0f 09 bf a4 59 e4 bc
       -0.073396474 0.14241095 -0.5353967 -0.027874775
000080 98 79 60 be b8 01 51 3d 86 d0 49 be e4 d4 14 be
       -0.21921384 0.05102703 -0.19708452 -0.14534336
000090 86 3c 6f bd 03 57 1b be e2 de 30 bd b6 ed 72 3e
       -0.05840733 -0.15169911 -0.043181308 0.23723492
0000a0 10 0c d7 bd 79 64 60 3c b5 93 33 bd e1 04 81 bd
       -0.105003476 0.01369583 -0.043842036 -0.06299759
0000b0 fa cb d7 bd b8 cb e7 3d 0c 77 1e 3e 34 3f a2 3d
       -0.10536952 0.11318153 0.154751 0.07922211
0000c0 32 03 44 be 0b f7 8d 3d a2 2a a8 be cb 67 44 be
       -0.19141844 0.06931885 -0.32845026 -0.19180219
0000d0 4d a9 32 3e 36 b9 86 be 55 d5 d7 bc 84 ce ed 3d
       0.17447396 -0.2631318 -0.026346842 0.11611655
0000e0 e0 56 b6 bc 8d 32 5d bd 0c 35 81 be 4e ec d7 bb
       -0.022258222 -0.054003287 -0.25235784 -0.006589449
0000f0 a9 60 a6 39 61 25 07 be e0 06 84 3e 37 28 63 3e
       0.00031734005 -0.13197853 0.25786495 0.2218331
000100 21 02 c1 3e 81 f3 83 be 7a e0 9c 3e 91 ed 16 be
       0.37696937 -0.25771716 0.30640012 -0.14739062
000110 7c 62 f2 bd a0 62 7e 3e 80 48 1e 3d 04 00 68 3e
       -0.11835191 0.2484231 0.03864336 0.22656256
000120 c4 d2 10 bc 98 7f 0f 3e 33 ec af 3d 1b 24 0b be
       -0.008839313 0.14013517 0.08589973 -0.13587992
000130 d9 20 d0 bd 9f fa 21 be e5 63 53 be 6b 01 d6 bd
       -0.10162515 -0.1581826 -0.20643575 -0.10449489
000140 a0 8f 5f 3e 43 3b 45 3e a6 ad 95 3e 44 b5 65 3e
       0.21832132 0.19260888 0.29234046 0.22432429
000150 a0 76 2b be 0c 6f 9e 3e 66 56 e0 bd 52 5d 9d 3e
       -0.1674447 0.30944097 -0.10953979 0.3073526
000160 2f 2d ec bd 8b 9d ba 3e 1d 90 88 bd 0c c2 0f 3d
       -0.115320556 0.3644832 -0.066681124 0.035097167
000170 93 86 30 3e 7f fa f1 bc 9d 4b 12 be 96 9b ac 3c
       0.17238836 -0.029538391 -0.14286657 0.021070283
000180 77 80 e2 3a 8b 5a f2 bd 18 69 cd be b0 86 ef 3d
       0.0017280717 -0.11833676 -0.40119243 0.116956115
000190 1e 86 06 3e c7 29 81 3e 3a 45 8b 3e 55 8d 54 3e
       0.13137099 0.25227186 0.27201253 0.20757039
0001a0 06 71 51 bc ee 42 f1 3d b6 bc 8b 3e 10 f7 c2 bd
       -0.012783295 0.11780344 0.27292413 -0.0951978
0001b0 83 86 a8 bc 5c d8 89 3e f0 4c 3e be 99 1d b6 bd
       -0.020571953 0.26922882 -0.18584037 -0.08892364
0001c0 38 8e a8 3d 0d c1 8e 3e aa 09 27 bd 09 11 49 3e
       0.08230251 0.2788166 -0.0407807 0.19635405
0001d0 a7 b6 87 3d d6 be e7 be 65 5c 09 bf 6f 85 60 3e
       0.06626635 -0.45262784 -0.5365661 0.21925901
0001e0 40 c5 68 3e 51 27 87 3e 68 c5 55 3d b6 51 dc bb
       0.22731495 0.26397184 0.052190214 -0.006723608
0001f0 dd 0f 08 3e b8 b5 2a be 29 68 1b bd 83 0b b0 3d
       0.13287301 -0.16670883 -0.03794113 0.08595946
000200 ad 03 4d 3e 53 ea 81 3c 34 7b 93 bd e3 7e 25 be
       0.20020933 0.015858805 -0.072012335 -0.16161685
000210 fd 47 73 3e 3c 6c dd 3e 59 c2 7c 3e 6a 9d 7a be
       0.2375793 0.4324664 0.24683513 -0.24474111
000220 04 12 df be 95 cc 9f bd 4b 4c 97 3e 45 67 44 be
       -0.43568432 -0.07802693 0.29550394 -0.19180019
000230 3e 46 89 3d eb 95 8c be 3c 70 54 3d 0a 62 2b be
       0.06702851 -0.27458128 0.051864848 -0.16736618
000240 7c 20 84 3d 5a 30 61 bd 47 cf 31 3e 6e 91 6a bd
       0.064515084 -0.054977752 0.17364226 -0.0572676
000250 01 6b c7 3d 62 48 69 be 32 d2 30 bd c9 d9 1d 3e
       0.09737206 -0.22781518 -0.043169208 0.1541511
000260 5b b4 b3 3d 59 e2 2d 3c 5a 87 a6 be 3b ac ea 3d
       0.087746345 0.0106130475 -0.3252514 0.114586316
000270 a8 86 e6 bd 5b 6b d2 3d 5e f2 aa bd ec 1c 75 3d
       -0.112561524 0.10274383 -0.08347009 0.059842035
000280 16 4a ea bd 1e 15 66 3e af b3 cd 3d fb 22 a8 bd
       -0.11439912 0.22468993 0.100440376 -0.08209797
000290 21 7f 2d bd e8 ff 1c be 97 09 89 be 4e 42 d3 bd
       -0.042357568 -0.15331995 -0.2676513 -0.10315381
0002a0 a2 de 7a bb 1b fe cb bd d2 64 6e be fd 66 a9 3e
       -0.0038279672 -0.09960576 -0.23280647 0.33086386
0002b0 cd 4f ff bd 73 cf 0a 3c 97 27 09 be 6f 53 a8 be
       -0.12466393 0.008472311 -0.13394009 -0.32876155
0002c0 8b a7 e7 3d df 11 cc 3d 19 c4 14 be 36 7f e7 3d
       0.11311253 0.09964346 -0.1452793 0.113035604
0002d0 92 88 02 3e 76 38 65 bc 87 37 68 be 67 ba 83 3d
       0.1274741 -0.013990512 -0.22677432 0.06432038
0002e0 a1 62 ea 3e 25 27 05 3e 35 7d 49 3d cd f6 ca 3d
       0.45778373 0.13003214 0.049191672 0.09910355
0002f0 fa b6 ff 3d 60 e0 99 3c 28 a1 5c 3e 91 d6 a5 3d
       0.12486072 0.018783748 0.21545851 0.08097566
000300 ce b7 e9 3d c0 5f 4b 3e e2 cb 5c be a5 d8 8f bd
       0.11412011 0.19860744 -0.2156215 -0.070237435
000310 79 54 ad be 34 6e 75 bb 81 dc d6 3c 7f eb 28 3e
       -0.3385351 -0.003744972 0.026228191 0.16496085
000320 d8 04 3d 3e a1 d2 d3 bd 40 44 81 bd 1b da f3 3d
       0.18458879 -0.10342909 -0.06311846 0.11906835
000330 39 da 3b bd 31 1f fc 3d ac b6 9f bd f4 0b 31 3e
       -0.04586241 0.12310637 -0.07798514 0.17289716
000340 e8 c3 d6 bb 76 de 05 bc 57 8a 7c 3c 92 c8 c3 be
       -0.0065541156 -0.008170715 0.015413842 -0.3823896
000350 75 fe ca bd 43 ed 5c be db a7 93 3e a0 9e a5 3e
       -0.09911815 -0.21574883 0.28839 0.32347584
000360 76 05 bc bd c5 ac 71 3e a8 75 7a 3c ba 3d 4e bc
       -0.09180729 0.23601063 0.0152868405 -0.012587959
000370 16 c1 2b 3e d8 4f 60 be 9e 80 89 be 2e 12 ea 3d
       0.16772875 -0.21905458 -0.2685594 0.11429249
000380 df ee a5 3d 22 e1 2c 3e 5e 0a 64 3e ed fa d2 3e
       0.08102202 0.16882756 0.2226958 0.41207066
000390 2a de b0 bd af 93 12 3e dd 74 31 3e 42 2e ee 3e
       -0.086361244 0.1431415 0.17329736 0.46519667
0003a0 fe 9e 9e 3d e9 48 b0 3e 2d bd 73 3e 48 ef 94 3d
       0.07745169 0.34430626 0.23802634 0.07272202
0003b0 94 86 a5 3d 0a ee fd 3d 2a 28 72 be a4 1c ab be
       0.08082309 0.12398918 -0.23648134 -0.3342029
0003c0 3a c2 68 3e f1 bf 37 3e f6 5f 87 be 25 f4 84 be
       0.22730342 0.17944314 -0.264404 -0.25967517
0003d0 cd ee 99 3d 74 01 80 3d dd 36 33 be 14 4f d4 bc
       0.07516251 0.06250277 -0.17501397 -0.025916614
0003e0 91 76 64 bd 6e 6e 1c 3e b1 dc bc be 63 41 fe 3c
       -0.055777136 0.152765 -0.36887124 0.031037038
0003f0 37 05 84 3e 47 d1 20 3e 08 dd 3a 3c 1e 8f 67 be
       0.2578523 0.15704833 0.011405237 -0.22613189

context_transformer_0/ffn_layer_1/intermediate_dense/einsum/Einsum;context_transformer_0/ffn_layer_1/intermediate_dense/Relu;context_transformer_0/ffn_layer_1/intermediate_dense/add f4 [32]
000000 73 46 27 be d4 6d bd bd 81 c8 0f be e4 4e a0 be
       -0.16335468 -0.09249464 -0.1404133 -0.3131019
000010 ed cb 9c be 70 b8 5d be 5f 9f c9 bd 1e 86 2c bd
       -0.30624333 -0.21652389 -0.09844851 -0.04212009
000020 56 d5 9a be 9d 05 d2 be 86 40 f5 bb b1 cf b9 be
       -0.30240887 -0.41019908 -0.0074844984 -0.36291268
000030 b6 6d 32 be 61 09 80 bd c0 73 5c be d7 e2 bd be
       -0.17424664 -0.06251789 -0.2152853 -0.37087128
000040 c4 06 87 bd 27 71 1b be 4e 59 3e be 5f e8 a8 be
       -0.06593087 -0.15179883 -0.18588755 -0.32989785
000050 65 2a a0 3d 93 9b f6 bd e8 3b 51 be bc 20 e3 bd
       0.07820586 -0.12041392 -0.20433009 -0.11090228
000060 a0 86 01 be 23 72 a1 be d0 a8 f1 bd d8 30 80 be
       -0.12649012 -0.31532392 -0.117997766 -0.25037265
000070 be cf d7 bd 90 8c 2d be d8 61 b7 3c 2e fa 2d be
       -0.105376706 -0.16948152 0.022385523 -0.16989967

context_transformer_0/ffn_layer_0/norm/mul;context_transformer_0/ffn_layer_0/norm/add;context_transformer_0/ffn_layer_1/intermediate_dense/einsum/Einsum;context_transformer_0/ffn_layer_1/intermediate_dense/Relu;context_transformer_0/ffn_layer_1/intermediate_dense/add f4 [32, 32]
000000 78 28 07 bf fb c4 97 3e 62 e8 52 3e 6d 14 d7 3e
       -0.52796125 0.29642472 0.2059646 0.4200777
000010 43 eb e9 bd e0 90 10 3e 14 72 c8 3d e8 3e 2d bd
       -0.11421826 0.14117765 0.09787384 -0.04229632
000020 cb 37 7e bd aa 2a 6c 3e 05 71 97 be d9 ac 4e 3d
       -0.062064927 0.2306315 -0.29578415 0.05045781
000030 5b 11 b5 3e b3 53 a6 bd 17 1a 4f 3d 32 17 86 3d
       0.35364804 -0.08121433 0.05056199 0.06547393
000040 f5 1e 33 3e 2c f4 0e 3d ba 0e bd bc 92 d4 9c bd
       0.17492278 0.03490083 -0.023078311 -0.07657732
000050 60 9d ae 3c 9d 5a 28 be 77 5b 6b 3d 48 0f 13 3e
       0.021315277 -0.16440816 0.057460275 0.14361298
000060 12 60 52 be 4f eb 0d bd 13 22 7d 3d b6 be 7d 3d
       -0.2054446 -0.034648236 0.061800074 0.061949454
000070 c1 d0 af be db 2a e1 bc 03 fd e4 bc a0 0d 26 be
       -0.34338954 -0.027486255 -0.027952677 -0.16216135
000080 3e 40 5a bd 05 20 df 3d 94 2d 9c bd dc 8f 2c be
       -0.053283922 0.10894779 -0.07625881 -0.16851753
000090 ca 2f 26 3e 7a db 10 3e 31 75 ca bd 55 7e a6 3e
       0.16229168 0.14146224 -0.09885634 0.3251826
0000a0 25 4a f4 3d 6c ba 19 3e aa 0b 3e 3e 6e c0 18 be
       0.119282044 0.1501252 0.18559137 -0.14917156
0000b0 f2 83 f0 bb 4d e3 9f bd 64 2d af bc fa e7 18 3e
       -0.007339948 -0.07807026 -0.021383949 0.14932242
0000c0 6f a8 76 bd c0 c1 2d 3e 3d f3 0b 3e 24 2e f2 3d
       -0.060219225 0.16968441 0.13667007 0.11825207
0000d0 f8 62 ad be 7d 6f 77 be 5c d3 89 be 78 a6 03 3e
       -0.3386457 -0.24163623 -0.26919067 0.12856472
0000e0 a9 00 84 3e 5c 6f e6 bd 65 38 1e 3d 24 b1 ed 3d
       0.25781754 -0.11251709 0.038628 0.116060525
0000f0 18 cf d3 be 41 5a 50 be 55 96 d7 3d df 38 38 3e
       -0.41368937 -0.20346929 0.105267204 0.17990445
000100 f8 da 1d be b0 09 37 3e 14 3d 4c be fa d5 ac bd
       -0.15415561 0.17874789 -0.19945174 -0.0843925
000110 3d a2 b6 3e fd 70 72 3d 10 69 04 be 2c c2 f9 3e
       0.35670653 0.059189785 -0.12930703 0.48780954
000120 5a 7a 01 3d 6c 27 3b be e8 47 04 be be 94 46 bd
       0.031610824 -0.18276757 -0.12918055 -0.048481695
000130 ee 9e 87 3d 8d 7a 0c be 37 88 86 bd 26 4e 17 3e
       0.0662211 -0.13718624 -0.0656895 0.14775905
000140 b6 a3 c8 bd da 9d da be 53 39 c1 be d9 7c 51 be
       -0.097968504 -0.42698556 -0.37739047 -0.20457782
000150 8b e8 a0 bc b8 40 4d bd 05 44 d2 be d2 fb c4 bd
       -0.019642135 -0.05011055 -0.4106752 -0.096183434
000160 53 51 be 3c 42 21 33 bc e2 72 95 3d 0c 35 0a bd
       0.023232138 -0.010933222 0.07297303 -0.033741996
000170 f9 2f 45 be 99 0b b7 be 72 e9 46 3d 13 bc bf 3d
       -0.19256581 -0.35751036 0.048562475 0.09362044
000180 3a 86 6d 3d 1b 4f 79 be 5d cb 50 be 7d 8b ee bd
       0.057989337 -0.24346583 -0.20390077 -0.11647699
000190 f4 bc aa bc a4 b3 34 3e 0c 6e 17 be 9c 96 16 3e
       -0.020842053 0.17646652 -0.14788073 0.1470589
0001a0 cc 54 da 3e cc e0 a3 bd 45 ac 47 3e 7b 2a 29 bd
       0.4264282 -0.08001861 0.1949931 -0.04130028
0001b0 7f a8 ca bc 9f b3 61 3e d9 2f 0d 3d f1 49 78 3e
       -0.024738548 0.22041176 0.03446946 0.24246956
0001c0 9d 1e 06 3e 1e 66 86 be de fe 5f bd 71 33 51 bd
       0.13097616 -0.26249784 -0.05468642 -0.05107445
0001d0 82 f0 75 3e f6 68 34 be 84 fa 10 be da 23 b7 3d
       0.24017528 -0.17618164 -0.14158064 0.08942385
0001e0 9e 76 f5 3d 38 16 f8 3c c7 04 8a 3d 0d 5c 6a be
       0.11985515 0.030284032 0.067391925 -0.22886677
0001f0 c4 e8 b9 3d 36 6a 80 3e 6d 4e ea bd 74 b9 f6 3d
       0.090776 0.25081033 -0.1144074 0.12047091
000200 10 b7 bb bd d9 13 68 bd ea 32 3e 3e 33 50 36 be
       -0.09165776 -0.056659553 0.1857411 -0.17804031
000210 68 35 2d bd 77 f2 b8 bd 93 44 2f 3d 1b 6e 38 be
       -0.04228726 -0.090306215 0.042790007 -0.18010752
000220 60 44 66 be 4c ad bc bd 57 5f 00 be 71 2f aa be
       -0.2248702 -0.09212741 -0.1253637 -0.3323932
000230 12 e9 44 3e e0 05 17 be 3b d3 bc bd 1f 53 32 be
       0.19229534 -0.14748335 -0.092199765 -0.1741452
000240 08 0b ba 3d 01 76 a1 be 56 b4 75 bd 33 c5 07 3e
       0.09084135 -0.31535342 -0.059986435 0.1325882
000250 06 46 90 3d 37 00 f4 bd 01 3b 30 be ef 76 64 3e
       0.07044606 -0.119141035 -0.17210008 0.22310995
000260 d1 8b d4 bd a7 41 82 3e 18 ec 39 be 7a 76 81 3e
       -0.1037823 0.25440714 -0.18156469 0.25285703
000270 a8 5a 97 bb 50 b2 af 3d 7a c6 33 bd b4 6f 70 be
       -0.0046189614 0.08578932 -0.043890454 -0.23480111
000280 df ac 0a 3e c6 24 f0 3c 78 fc 5e 3d 60 c5 3e 3e
       0.13542508 0.02931441 0.05443999 0.1862998
000290 e7 20 25 bd 5c 1d 27 be b5 38 0e be e1 32 ca 3d
       -0.04031458 -0.16319793 -0.1388882 0.09872986
0002a0 06 84 5d be 13 a5 b0 bd c5 02 cb 3d 10 77 2d 3f
       -0.21632394 -0.086252354 0.099126376 0.677598
0002b0 8c e4 77 bd da 10 a4 3e f1 2c 4a be c4 34 f4 bd
       -0.060520694 0.32044107 -0.19743706 -0.11924127
0002c0 77 2b c7 3d ab 7d d5 3d d5 9a 20 bd d6 d1 4d bd
       0.09725087 0.1042436 -0.03921016 -0.050248943
0002d0 83 0a 0f be c2 65 5a be 9a 96 9a 3e 07 8b 96 3e
       -0.13968854 -0.2132788 0.30193025 0.29402944
0002e0 f8 1f 5d be 88 ac f6 3c 1f 5f 3e be 6f d4 3f be
       -0.21594226 0.030111566 -0.18590973 -0.1873338
0002f0 85 27 e6 bd 79 a4 5f be a1 02 20 bd e9 ae 89 bc
       -0.112380065 -0.21840085 -0.039065007 -0.016807036
000300 f0 70 a6 bd 73 f5 c2 bd 27 92 82 bd 4b 38 06 bd
       -0.0812701 -0.09519472 -0.063755326 -0.03276853
000310 7f 5a b6 bc 2e f4 77 bd e7 d0 99 3d cc 6f 9a bc
       -0.022259949 -0.060535602 0.07510548 -0.018852137
000320 7b b0 ad 3d 7e a4 21 be 2a f1 91 3d 04 3d fe 3c
       0.084809266 -0.15785405 0.071260765 0.031034954
000330 80 62 33 3e 8a ee 83 be 45 19 1f 3c f4 1c 6f 3e
       0.17518044 -0.25767928 0.009710615 0.23350888
000340 a1 52 d8 bb 3e 5a cd bd 34 39 75 be 31 27 18 bb
       -0.006601647 -0.10026978 -0.23947603 -0.002321672
000350 f6 aa c2 3b 9a 3f 4c 3d 70 f4 db bd 88 8a d7 3b
       0.0059407903 0.049865343 -0.10739982 0.0065777935
000360 10 81 a2 3c aa b4 d4 3d 2d bf a5 ba a1 6e d4 be
       0.019836932 0.103860214 -0.0012645476 -0.41490653
000370 4e 32 0c 3e d3 52 20 be 56 9a bc 3e b8 d3 b2 bd
       0.13691065 -0.15656595 0.368365 -0.087317884
000380 29 3f 8c 3e d9 da 98 bd a9 45 c5 bd e6 95 0d be
       0.27391937 -0.07463617 -0.09632427 -0.13826713
000390 e5 55 0c be ca e6 85 be d2 2c c8 be de b5 d1 3c
       -0.13704641 -0.2615264 -0.39096695 0.025599416
0003a0 20 38 f0 bc f5 d2 7b 3d 73 b0 73 3e 68 f7 26 3d
       -0.029323637 0.06148048 0.23797779 0.04076329
0003b0 9e 54 80 3e ab 48 21 be 51 81 b4 3e 8d 39 0a 3e
       0.25064558 -0.15750377 0.3525491 0.13498516
0003c0 bc 77 16 be fe ce 74 3e 7b b2 02 be f4 dd 88 be
       -0.14694113 0.23907086 -0.12763397 -0.26731837
0003d0 43 d5 5b be 42 8a 0e 3c f6 4c 8d be 57 9b 2e 3d
       -0.21468072 0.008699955 -0.2759778 0.042628612
0003e0 58 02 97 be bb 0a 33 bc 96 9f 90 3e 3f fb b2 3d
       -0.29493976 -0.010927851 0.28246754 0.08739328
0003f0 ff e4 0b be 57 c9 32 be 92 75 b4 bb 57 08 11 bc
       -0.13661574 -0.17459618 -0.0055071795 -0.008852086

context_transformer_0/ffn_layer_2/intermediate_dense/einsum/Einsum;context_transformer_0/ffn_layer_2/intermediate_dense/Relu;context_transformer_0/ffn_layer_2/intermediate_dense/add f4 [32]
000000 4e 81 b5 bd f8 b6 92 3c 1f ff 09 be aa 35 d2 bd
       -0.088625535 0.017909512 -0.13476227 -0.10264142
000010 f9 f5 73 be 2f e0 18 be 0e 42 b9 bd 0d 6b b9 be
       -0.238243 -0.14929269 -0.09045802 -0.36214486
000020 e5 54 2e bc 80 e9 8c be 26 30 2a be b2 48 ad bc
       -0.010640358 -0.27521896 -0.1661993 -0.021152828
000030 10 ad a9 be fa 52 ca bd 7c 79 22 be 99 41 18 be
       -0.3313985 -0.09879108 -0.15866655 -0.14868774
000040 d1 23 cb be 8d de 4f be f5 b9 24 bd a8 58 ea bd
       -0.39675763 -0.2029974 -0.040216405 -0.11442691
000050 6b aa da bb 8b 70 2b be 71 96 05 be 0a 33 d6 bd
       -0.0066731474 -0.1674215 -0.1304567 -0.10458954
000060 e7 cd 62 be 31 40 93 bd 34 f4 d9 be 60 66 6a be
       -0.22148858 -0.07189978 -0.42569125 -0.22890615
000070 ee 47 96 be d5 9f 76 be 5d 5a a2 3c ea 54 4e be
       -0.29351753 -0.24084409 0.01981848 -0.2014958
