.dart_tool/chrome-device/Default/optimization_guide_prediction_model_downloads/652bfe65-8069-4085-a213-dfd5b24836bd/model.tflite (tflite, 67216 bytes, 5 tensors)

dnn/hiddenlayer_1/bias/part_0 f4 [64]
-0.022326438 0.097954325 -0.017259695 0.061373748 -0.01057217 0.07857402 0.017301964 -0.007473974
0.09720628 0.0152221285 0.05463116 0.005106301 -0.026796775 -0.00926074 0.044500064 0.0019837052
-0.005981492 -0.023197463 -0.01873028 -0.030834649 -0.035138905 0.08152946 -0.02425659 -0.0026333556
0.101350635 -0.014539302 -0.018300593 0.020626858 0.02805056 0.022397844 -0.044675373 -0.02494324
-0.038225256 -0.019787643 -0.006031214 -0.053552315 -0.06059103 -0.021111013 0.010155535 -0.04592884
-0.024783147 -0.0062868143 0.1028551 -0.15769659 0.0830545 -0.032941617 -0.06622833 0.07083473
-0.0069358167 -0.019707175 -0.030544266 -0.07583888 -0.022880442 0.06151034 -0.022333076 0.042435445
0.114287764 0.056469865 -0.023147328 -0.04190556 0.012555828 0.0039953096 0.004531396 -0.0318533
00000000: efe5 b6bc 479c c83d 3464 8dbc 0a63 7b3d
00000010: e536 2dbc 6aeb a03d d9bc 8d3c 3de8 f4bb
00000020: 1614 c73d 3c66 793c ecc4 5f3d c252 a73b
00000030: e984 dbbc 5cba 17bc b345 363d 0d01 023b
00000040: 6400 c4bb 9b08 bebc 3f70 99bc f298 fcbc
00000050: d0ed 0fbd ebf8 a63d c2b5 c6bc 6094 2cbb
00000060: ec90 cf3d 4136 6ebc 20eb 95bc a8f9 a83c
00000070: 4aca e53c af7b b73c 86fd 36bd c455 ccbc
00000080: 1692 1cbd b219 a2bc 7da1 c5bb ac59 5bbd
00000090: 4d2e 78bd 01f1 acbc 6763 263c e11f 3cbd
000000a0: 0706 cbbc 9f01 cebb b2a5 d23d 377b 21be
000000b0: 7a18 aa3d caed 06bd b8a2 87bd cd11 913d
000000c0: d945 e3bb f170 a1bc f837 fabc 6a51 9bbd
000000d0: c46f bbbc 44f2 7b3d dbf3 b6bc cad0 2d3d
000000e0: b40f ea3d f24c 673d 779f bdbc 2aa5 2bbd
000000f0: f6b6 4d3c 16eb 823b 1b7c 943b 9b78 02bd

dnn/hiddenlayer_0/bias/part_0 f4 [128]
0.12747979 -0.10403025 0.014752824 -0.058681037 -0.018688783 0.012473622 -0.02553483 -0.008565936
0.00626799 0.030185005 -0.009895779 0.01767114 0.01952266 -0.07156117 -0.02115936 -0.07740729
0.053153493 -0.03683886 -0.11868169 -0.014276355 -0.15130599 -0.0008119589 -0.008693109 -0.0011632766
0.09979044 -0.012571284 0.07129525 0.037334412 -0.021253105 -0.0033939362 0.034695376 0.010302153
0.04522442 0.024762524 0.025559826 0.0194018 0.017828044 0.026479177 0.014219485 0.030050926
0.005880739 -0.037782997 -0.080154076 -0.058508422 0.048413638 -0.06351014 -0.0040964033 0.075418405
-0.1266363 -0.006344868 -0.019565824 -0.04782619 -0.10484317 0.018755483 -0.053157333 0.045234542
0.07272383 0.0057293465 0.061361507 -0.08384429 0.04446922 -0.02382771 -0.012238972 0.034314156
0.0020412311 0.0691909 0.09091471 0.017748665 -0.05079016 -0.020904697 -0.053306017 0.02887412
0.031906474 0.015418434 -0.017252477 0.022419188 -0.03935435 -0.10370003 0.020472804 0.018480936
0.020266814 0.017843517 -0.027051244 0.056355476 0.009982426 0.052898277 -0.063475676 -0.013890403
0.02306275 0.0040397765 0.07174613 -0.0023550603 -0.012096962 0.020054953 0.016926724 0.028798783
0.050790753 -0.052545145 0.032240745 0.014538891 -0.01008583 -0.0027990174 0.020837817 0.04265022
0.017567374 -0.004848073 -0.026518201 -0.078313306 0.06040514 -0.10785212 0.03683963 -0.002857807
-0.12603372 -0.007741312 0.054644007 -0.008885731 -0.03754785 -0.15111654 -0.05649464 -0.06248259
0.037318327 0.021255217 -0.007742399 -0.002898326 0.09575786 -0.05633792 0.06416754 0.08723626
00000000: 108a 023e d00d d5bd d4b5 713c 875b 70bd
00000010: 3819 99bc 2a5e 4c3c 6b2e d1bc 2458 0cbc
00000020: b663 cd3b 8b46 f73c e821 22bc 11c3 903c
00000030: fced 9f3c aa8e 92bd 6556 adbc b787 9ebd
00000040: 7ab7 593d 58e4 16bd 630f f3bd 5fe7 69bc
00000050: f5ef 1abe a4d9 54ba 8b6d 0ebc 1679 98ba
00000060: ee5e cc3d c9f7 4dbc 3e03 923d f8eb 183d
00000070: fe1a aebc cd6c 5ebb bd1c 0e3d 5dca 283c
00000080: 3e3d 393d c7da ca3c d762 d13c 86f0 9e3c
00000090: 1e0c 923c dcea d83c d8f8 683c 5c2d f63c
000000a0: 37b3 c03b 58c2 1abd d227 a4bd 87a6 6fbd
000000b0: 614d 463d 9b11 82bd 1f3b 86bb f774 9a3d
000000c0: f2ac 01be 9ce8 cfbb 8248 a0bc 65e5 43bd
000000d0: 04b8 d6bd 19a5 993c 81bb 59bd db47 393d
000000e0: 3bf0 943d 3ebd bb3b 3456 7b3d 8eb6 abbd
000000f0: 5b25 363d 5432 c3bc f885 48bc 008d 0c3d
00000100: 2dc6 053b f5b3 8d3d 7e31 ba3d a665 913c
00000110: 5809 50bd 5440 abbc 6957 5abd 6b89 ec3c
00000120: 5db0 023d 999d 7c3c 1155 8dbc 72a8 b73c
00000130: 0732 21bd ae60 d4bd 95b6 a73c 5565 973c
00000140: 9706 a63c 912c 923c 929a ddbc 00d5 663d
00000150: 548d 233c ddab 583d 89ff 81bd 9394 63bc
00000160: 18ee bc3c 1a60 843b a3ef 923d 5b57 1abb
00000170: 5632 46bc 494a a43c eaa9 8a3c 6deb eb3c
00000180: f709 503d 9439 57bd df0e 043d 8734 6e3c
00000190: 0a3f 25bc b86f 37bb 12b4 aa3c ffb1 2e3d
000001a0: 74e9 8f3c 95dc 9ebb b33c d9bc ba62 a0bd
000001b0: 616b 773d 93e1 dcbd 27e5 163d 0c4a 3bbb
000001c0: fc0e 01be d5aa fdbb 65d2 5f3d 7595 11bc
000001d0: c6cb 19bd 4bbe 1abe ec66 67bd bfed 7fbd
000001e0: 1adb 183d 6c1f ae3c f3b3 fdbb d7f1 3dbb
000001f0: b21c c43d 97c2 66bd 456a 833d eda8 b23d

dnn/hiddenlayer_0/MatMul f4 [128, 12]
0.20772377 -0.23242393 -0.083407536 0.05373307 0.14874196 0.07743297 0.059406344 -0.08658148
0.115399264 0.09610371 0.105395496 -0.22092746 -0.10226003 0.07953021 -0.15465304 -0.11551909
0.08654677 -0.08307253 -0.3105752 -0.0759438 0.16656883 0.14390844 -0.10511438 -0.07095102
0.20844959 -0.08547927 0.07919036 -0.09857399 -0.06889538 0.18933383 -0.0129966065 -0.20162484
0.00669138 0.06327296 -0.014750432 -0.21130295 -0.08446193 0.17095964 -0.21606237 -0.09958487
-0.12348454 0.09143421 -0.0673179 -0.052887507 0.13314708 -0.19930692 -0.24337839 0.17897366
-0.13321176 -0.073157534 0.09338411 0.0014242954 -0.09716111 -0.16633159 -0.18613437 -0.1913421
-0.17872626 0.19751045 -0.16297144 -0.05879936 0.103974745 -0.070100754 0.1322813 0.025701633
0.07919669 -0.13807459 -0.20116569 -0.2187459 0.12687543 -0.21682528 -0.11616359 0.086708404
0.12662753 -0.17756623 -0.15512662 -0.043097015 -0.2105404 -0.13622423 -0.06677477 0.020323541
0.026895186 0.06543617 0.095075965 0.15392603 0.11193156 0.21046238 -0.030347547 0.20693268
0.07672051 -0.09759656 -0.06020015 -0.15598825 0.011536689 0.25658706 0.14822745 -0.1743909
-0.062047653 -0.032711327 0.011069783 -0.15041237 0.14533232 -0.12978463 -0.07477503 -0.06590893
-0.02165973 0.04454497 -0.14656062 -0.08575324 -0.12768872 -0.01100706 -0.21711272 0.08346019
-0.11025769 0.17506692 -0.22189151 -0.098331906 0.05952831 -0.08831943 -0.11245462 0.058767542
0.12935619 -0.10603889 -0.07616142 0.118023336 0.17472139 0.053539257 -0.14386392 0.14656773
0.02394122 0.1568552 -0.057721693 0.123465076 0.19346257 -0.08941846 0.15562686 -0.049514525
-0.17413129 0.1616705 -0.017031863 -0.14287551 0.069632865 -0.10450599 -0.17217924 0.16231373
0.09095669 -0.0059079705 0.067331895 -0.16373521 0.17680179 0.09225163 0.19809435 0.10294294
-0.13389103 -0.08803774 0.00031627534 0.28681093 -0.13016178 0.13616207 0.08517288 -0.018829238
-0.09099361 -0.16467981 -0.20784524 -0.041606296 0.20939079 0.046425197 -0.071342975 -0.22816737
0.20417178 0.16222234 -0.25887942 -0.06788669 -0.062327676 0.08258845 -0.14574437 -0.13206911
-0.020549694 -0.06448614 0.1694446 0.10505294 0.025551766 0.14242242 -0.3032792 0.1783666
0.007881312 0.10579939 -0.29244548 -0.09996321 -0.0615915 0.11514234 0.09425189 0.098309465
-0.20072013 -0.12180001 0.028558923 -0.0695152 -0.061071336 -0.14108865 0.0006694214 -0.23158385
0.02850315 -0.09646715 0.16656055 -0.14062512 0.16373718 0.07829794 -0.18316667 0.0029381455
0.12553993 -0.06387452 -0.01578516 -0.08129034 -0.16937028 -0.15397856 -0.06725831 -0.15585142
0.11595242 0.09514733 -0.025520677 0.15268001 -0.005834317 0.019969564 -0.2622621 -0.104789846
-0.07338397 0.23959064 0.11822728 0.037599962 0.10790041 -0.027135652 0.1485847 0.0024442584
0.18424064 0.16785908 -0.107336245 0.13224404 -0.20367417 -0.2105073 0.042003557 -0.0066994377
-0.1084432 -0.06031078 -0.22031525 0.016263882 0.009977062 0.17692052 0.012384719 0.03155838
0.13629515 0.10408295 -0.05271086 0.09024072 -0.21945263 0.19742611 0.17978 0.19950348
00000000: 8ab5 543e 8a00 6ebe 92d1 aabd 3517 5c3d
00000010: d04f 183e 2d95 9e3d 1154 733d a251 b1bd
00000020: 7356 ec3d 06d2 c43d 98d9 d73d cf3a 62be
00000030: b56d d1bd bce0 a23d 5e5d 1ebe 4695 ecbd
00000040: 6f3f b13d ee21 aabd b603 9fbe 6c88 9bbd
00000050: 0591 2a3e bc5c 133e 3546 d7bd c54e 91bd
00000060: cf73 553e c10f afbd 8e2e a23d 29e1 c9bd
00000070: 0519 8dbd bae0 413e b8ef 54bc be76 4ebe
00000080: 5d43 db3b 4195 813d ccab 71bc cd5f 58be
00000090: 60fa acbd 0b10 2f3e 743f 5dbe 27f3 cbbd
000000a0: 76e5 fcbd dc41 bb3d f8dd 89bd 92a0 58bd
000000b0: b557 083e 1d17 4cbe 2f38 79be df44 373e
000000c0: aa68 08be 9ed3 95bd 2b40 bf3d 6caf ba3a
000000d0: 67fc c6bd d452 2abe 029a 3ebe 2fef 43be
000000e0: 0404 37be 2e40 4a3e fce1 26be 99d7 70bd
000000f0: b6f0 d43d fc90 8fbd c074 073e 3b8c d23c
00000100: e031 a23d 6d63 0dbe 61fe 4dbe edfe 5fbe
00000110: a2eb 013e 7207 5ebe 2de7 edbd 2d94 b13d
00000120: a6aa 013e ecd3 35be 83d9 1ebe 7f86 30bd
00000130: e797 57be 5d7e 0bbe 36c1 88bd 8e7d a63c
00000140: 4b53 dc3c 6603 863d 30b7 c23d c99e 1d3e
00000150: 603c e53d 7383 573e 6b9b f8bc 29e6 533e
00000160: a51f 9d3d b5e0 c7bd 6f94 76bd 62bb 1fbe
00000170: 6104 3d3c 615f 833e f0c8 173e 8793 32be
00000180: ae25 7ebd 50fc 05bd 095e 353c b305 1abe
00000190: ffd1 143e 43e6 04be a723 99bd 43fb 86bd
000001a0: bf6f b1bc c974 363d fd13 16be 659f afbd
000001b0: d5c0 02be f556 34bc cc52 5ebe 2ded aa3d
000001c0: c9ce e1bd be44 333e 8737 63be 3d62 c9bd
000001d0: f5d3 733d d1e0 b4bd 9c4e e6bd 3cb6 703d
000001e0: f375 043e eb2a d9bd 85fa 9bbd 38b6 f13d
000001f0: 2aea 323e fb4b 5b3d 1051 13be da15 163e
00000200: 6120 c43c a69e 203e 956d 6cbd 42db fc3d
00000210: 0d1b 463e 0721 b7bd a65c 1f3e becf 4abd
00000220: 794f 32be f48c 253e 6886 8bbc f54d 12be
00000230: ad9b 8e3d 3d07 d6bd c14f 30be 9235 263e
00000240: 8047 ba3d a697 c1bb 4ee5 893d 34aa 27be
00000250: 870b 353e 6cee bc3d 3fd9 4a3e c0d3 d23d
00000260: bb1a 09be 214d b4bd c2d1 a539 e2d8 923e
00000270: 2149 05be 126e 0b3e 1e6f ae3d c63f 9abc
00000280: dc5a babd d3a1 28be 62d5 54be 5d6b 2abd
00000290: 8a6a 563e 5928 3e3d 441c 92bd b5a4 69be
000002a0: 6812 513e 9d1d 263e d88b 84be 2d08 8bbd
000002b0: 4e4b 7fbd 2224 a93d 033e 15be 203d 07be
000002c0: d557 a8bc 4f11 84bd e382 2d3e ff25 d73d
000002d0: f051 d13c 2fd7 113e 6947 9bbe bca5 363e
000002e0: 9e20 013c 5aad d83d 6abb 95be 83b9 ccbd
000002f0: 5e47 7cbd bfcf eb3d 2307 c13d 7956 c93d
00000300: 9489 4dbe 4972 f9bd 67f4 e93c fc5d 8ebd
00000310: f025 7abd 8b79 10be 1c7c 2f3a 5124 6dbe
00000320: 707f e93c 9290 c5bd d98e 2a3e 0800 10be
00000330: b8aa 273e ac5a a03d 0b90 3bbe e78d 403b
00000340: 8a8d 003e a5d0 82bd e14f 81bc 8d7b a6bd
00000350: 676f 2dbe 8eac 1dbe babe 89bd 8497 1fbe
00000360: 7678 ed3d 9adc c23d bd10 d1bc 2658 1c3e
00000370: cc2d bfbb 3697 a33c 3847 86be 0f9c d6bd
00000380: 564a 96bd 4057 753e 2521 f23d 6b02 1a3d
00000390: e4fa dc3d 964b debc 9626 183e da2f 203b
000003a0: 94a9 3c3e 40e3 2b3e 1bd3 dbbd fb6a 073e
000003b0: f68f 50be 3a8f 57be ec0b 2c3d f586 dbbb
000003c0: 7817 debd 7008 77bd 529a 61be d53b 853c
000003d0: d576 233c a72a 353e 47e9 4a3c 5c43 013d
000003e0: f590 0b3e 7129 d53d 58e7 57bd 20d0 b83d
000003f0: 31b8 60be 122a 4a3e 4018 383e a44a 4c3e

dnn/hiddenlayer_1/MatMul f4 [64, 128]
0.0926215 0.08539902 -0.13569629 0.021726934 -0.03255838 -0.13601719 -0.0992049 0.07483849
-0.13507944 -0.11127462 0.17769295 -0.0916003 0.16028915 -0.0035833179 -0.06921991 0.04771657
-0.17295553 0.049992952 -0.027084438 -0.09058534 -0.16210699 -0.11164938 0.06287232 0.1449566
0.09504066 0.11587078 -0.15423873 -0.073673435 -0.13922627 -0.19487274 -0.09296052 -0.1262176
-0.084721096 0.0014467961 -0.06723662 0.10448452 0.15129769 -0.10790162 0.0018274344 0.101742536
0.14343664 0.14733213 0.14786689 0.014906453 -0.034262396 -0.054074362 -0.1608436 -0.11153657
0.056682292 0.10329261 -0.12983428 -0.15457308 0.12579304 -0.055339184 -0.1766165 -0.040237997
-0.04302172 0.09891269 -0.041461412 -0.11763999 -0.06313318 0.042734865 -0.00047538293 -0.12553416
0.045746904 0.050490957 0.08761017 0.15045878 -0.08625256 -0.046618726 -0.1470295 -0.029189015
0.14741689 -0.19640152 -0.190724 0.032007087 0.1353384 0.011283474 0.0790666 0.078526475
-0.06302663 0.089609005 -0.082331 0.0041814074 -0.15370029 -0.14394681 -0.13408811 0.08139884
0.030576259 -0.12975113 0.14402819 -0.10638431 0.029026747 0.0119846575 0.13845351 -0.122414775
-0.021353563 -0.08194153 0.07041523 -0.07751065 0.17509261 0.13242619 0.13860892 0.111736335
0.15880339 0.015460413 0.004938192 0.1702886 -0.07937977 -0.1610918 0.07379615 0.0115644075
-0.055198364 0.08824008 -0.12029488 -0.042521454 -0.009921957 0.10184398 -0.109458126 -0.061852098
-0.10823133 -0.14163454 -0.13748328 0.12156802 0.16556323 0.033672616 -0.0003784415 -0.12384068
0.17077291 -0.023025315 0.07764113 0.026207041 -0.11176751 -0.017313922 -0.055310164 0.0030537513
0.004746038 -0.017133513 -0.08289499 0.06539694 -0.13292634 0.09423905 0.07262687 0.1842924
0.0066625224 0.14069015 0.09371311 -0.103926964 -0.083045684 -0.1278574 0.0313856 -0.08211641
0.0756115 0.043219626 -0.10752044 0.08440776 -0.17566846 0.0099810455 0.018824808 -0.19882141
0.11403764 -0.10879899 0.20317982 -0.030265698 -0.14210428 -0.1349573 -0.084084414 0.120504685
-0.022398137 0.113289885 0.16313055 -0.057278674 -0.002288239 0.153068 0.11302841 -0.14883897
0.26511008 0.0894892 0.15563862 0.12529565 -0.21389736 -0.058975697 0.025937803 0.01585413
0.1555312 -0.03706894 0.10832097 -0.14371803 0.1262476 0.13880697 0.12427804 0.01205072
0.0215132 -0.0872806 0.112372704 -0.024105303 0.17773232 0.121464744 0.092182755 0.052818067
0.097179584 0.070761524 0.029071469 0.049994357 0.11655099 -0.016360167 -0.015823295 0.026147844
-0.05926002 0.008669577 -0.17772439 0.058928303 0.029513853 -0.013369454 -0.11377932 -0.14201298
0.08297234 -0.08892134 0.19711603 0.03977685 0.063603446 -0.09516262 0.067872964 -0.0020300501
0.041965835 -0.011287251 0.12947415 0.028260972 0.09408394 -0.0034556894 -0.04110468 0.15237659
0.10118259 0.08617794 0.061109725 0.15898979 0.035972558 -0.10049136 0.16600476 -0.067438036
0.06320621 -0.07249595 -0.08157789 0.007760278 -0.0732581 -0.059494898 -0.0055193026 -0.15890117
0.17536166 0.16455129 -0.0041756835 0.11266787 0.08461985 -0.09764431 0.20077123 -0.09246007
00000000: 57b0 bd3d aee5 ae3d f8f3 0abe affc b13c
00000010: f05b 05bd 1748 0bbe f02b cbbd ec44 993d
00000020: 4452 0abe f3e3 e3bd 24f5 353e f098 bbbd
00000030: d722 243e 19d6 6abb 2bc3 8dbd 7372 433d
00000040: 411b 31be 69c5 4c3d 2fe0 ddbc cf84 b9bd
00000050: 60ff 25be 6ea8 e4bd 34c3 803d 816f 143e
00000060: ada4 c23d a94d ed3d c2f0 1dbe 19e2 96bd
00000070: 5591 0ebe b88c 47be 1662 bebd 303f 01be
00000080: 4182 adbd 6ca2 bd3a 5ab3 89bd fbfb d53d
00000090: c8ed 1a3e 86fb dcbd 8686 ef3a 645e d03d
000000a0: 0ee1 123e 3cde 163e 6b6a 173e 323a 743c
000000b0: ba56 0cbd 147d 5dbd 2fb4 24be 496d e4bd
000000c0: b12b 683d 138b d33d 47f3 04be 6848 1ebe
000000d0: e4cf 003e 57ab 62bd f5da 34be 99d0 24bd
000000e0: 8b37 30bd bd92 ca3d 71d3 29bd 3ced f0bd
000000f0: f84b 81bd c10a 2f3d d13c f9b9 078c 00be
00000100: 1b61 3b3d 9bcf 4e3d f66c b33d de11 1a3e
00000110: 2fa5 b0bd 47f3 3ebd e78e 16be cd1d efbc
00000120: 74f4 163e 7b1d 49be 274d 43be dd19 033d
00000130: 2696 0a3e 52de 383c abed a13d 7dd2 a03d
00000140: 1b14 81bd ed84 b73d 289d a8bd 3004 893b
00000150: 9c63 1dbe cb66 13be 654e 09be 6fb4 a63d
00000160: 107b fa3c 7bdd 04be 207c 133e 04e0 d9bd
00000170: 80c9 ed3c 4c5b 443c c2c6 0d3e 99b4 fabd
00000180: abed aebc f6d0 a7bd dc35 903d e7bd 9ebd
00000190: 7a4b 333e bb9a 073e 7fef 0d3e 05d6 e43d
000001a0: 5b9d 223e ac4d 7d3c 8fd0 a13b 2260 2e3e
000001b0: dc91 a2bd 40f5 24be 7022 973d a478 3d3c
000001c0: ae17 62bd 37b7 b43d 295d f6bd fa2a 2ebd
000001d0: b48f 22bc 9493 d03d 952b e0bd a058 7dbd
000001e0: 63a8 ddbd a508 11be 6bc8 0cbe a7f8 f83d
000001f0: 6889 293e 4cec 093d 8f69 c6b9 2fa0 fdbd
00000200: 18df 2e3e 969f bcbc 5002 9f3d 26b0 d63c
00000210: 5de6 e4bd edd5 8dbc e98c 62bd 7221 483b
00000220: a784 9b3b 955b 8cbc d9c4 a9bd d5ee 853d
00000230: d81d 08be 6700 c13d 65bd 943d 26b7 3c3e
00000240: 4a51 da3b 1411 103e a9ec bf3d a9d7 d4bd
00000250: db13 aabd 0ded 02be 308e 003d a62c a8bd
00000260: 34da 9a3d 1007 313d ad33 dcbd fadd ac3d
00000270: 6fe2 33be 8a87 233c 7c36 9a3c d797 4bbe
00000280: 918c e93d 01d2 debd 5f0e 503e c5ef f7bc
00000290: c983 11be 3f32 0abe 7334 acbd 29cb f63d
000002a0: 4c7c b7bc 8704 e83d b20b 273e 0b9d 6abd
000002b0: 48f6 15bb dcbd 1c3e 707b e73d 3e69 18be
000002c0: 82bc 873e 1d46 b73d bb5f 1f3e 814d 003e
000002d0: e907 5bbe 8090 71bd 847b d43c 85e0 813c
000002e0: 9243 1f3e 9ad5 17bd 62d7 dd3d d22a 13be
000002f0: 0d47 013e 6a23 0e3e 7c85 fe3d 6270 453c
00000300: 733c b03c 2cc0 b2bd a923 e63d 7c78 c5bc
00000310: 76ff 353e 82c2 f83d 50ca bc3d c257 583d
00000320: 1706 c73d 6beb 903d 4a27 ee3c e2c6 4c3d
00000330: 49b2 ee3d c205 86bc db9f 81bc 0134 d63c
00000340: a2ba 72bd d70a 0e3c 62fd 35be ce5e 713d
00000350: 09c7 f13c 8e0b 5bbc 2205 e9bd da6b 11be
00000360: 67ed a93d 641c b6bd c9d8 493e 0ded 223d
00000370: 8642 823d 9fe4 c2bd fb00 8b3d 970a 05bb
00000380: 5ee4 2b3d 29ee 38bc df94 043e 8e83 e73c
00000390: 15af c03d d978 62bb 625d 28bd 9c08 1c3e
000003a0: d138 cf3d 0f7e b03d 314e 7a3d 38ce 223e
000003b0: f657 133d 6ace cdbd 27fd 293e f41c 8abd
000003c0: 4272 813d c278 94bd 4f12 a7bd ee49 fe3b
000003d0: 5808 96bd ecb0 73bd 44db b4bb fdb6 22be
000003e0: 0292 333e 2280 283e 2cd4 88bb 6abe e63d
000003f0: 2c4d ad3d bdf9 c7bd f996 4d3e b55b bdbd

dnn/logits/MatMul f4 [1, 64]
0.08723555 0.39321345 -0.39712614 0.36374864 -0.30948374 0.22937392 -0.270537 -0.147304
0.32232448 -0.13743116 0.26151142 -0.112001605 0.10334515 -0.3824198 0.19830185 -0.3750373
-0.3774171 0.21469456 0.06801599 -0.060340635 -0.24121527 0.24474311 -0.39496395 -0.022154052
0.30712816 0.14490081 0.15080412 -0.16172403 -0.28565404 0.3281002 -0.12482078 -0.28314066
0.15867403 -0.13842271 -0.28885946 -0.21563113 -0.16463394 -0.10711109 0.06386115 -0.232902
0.03696236 0.1279223 0.3622402 0.4780041 0.2751959 -0.12426525 -0.23685975 0.23693573
-0.09408176 -0.10810503 -0.37452725 -0.3270536 -0.19613466 0.2050714 0.06410265 0.09113496
0.4115478 0.32274786 -0.2759002 -0.2368327 -0.13394894 -0.3695156 -0.057300024 0.42890152
00000000: 8da8 b23d 4653 c93e 1e54 cbbe 433d ba3e
00000010: a774 9ebe ffe0 6a3e d383 8abe dcd6 16be
00000020: b707 a53e c1ba 0cbe d3e4 853e 1961 e5bd
00000030: 9fa6 d33d 87cc c3be a40f 4b3e e404 c0be
00000040: d03c c1be e4d8 5b3e f84b 8b3d be27 77bd
00000050: 2301 77be f09d 7a3e b738 cabe 6a7c b5bc
00000060: e73f 9d3e e160 143e 656c 1a3e fc9a 25be
00000070: 3f41 92be c0fc a73e 09a2 ffbd d0f7 90be
00000080: 727b 223e afbe 0dbe 63e5 93be 68ce 5cbe
00000090: cd95 28be 0f5d dbbd a2c9 823d dd7d 6ebe
000000a0: d865 173d 10fe 023e 8c77 b93e f4bc f43e
000000b0: 7ae6 8c3e c87e febd 5d8b 72be 489f 723e
000000c0: f0ad c0bd 2c66 ddbd 09c2 bfbe 9273 a7be
000000d0: 86d7 48be 3dfe 513e 4048 833d f7a4 ba3d
000000e0: 65b6 d23e 353f a53e ca42 8dbe 4584 72be
000000f0: e929 09be 2631 bdbe 6eb3 6abd fb98 db3e
